KickSense/model/kick_model.tflite (tflite, 148000 bytes, 6 tensors)

dense_2/bias f4 [2]
0	0x3f3ebd8b	0.7450797
1	0xbf3ebd5d	-0.74507695

dense_1/bias f4 [15]
0	0x00000000	0.0
1	0xbc843bb2	-0.016141746
2	0x3f7963ab	0.97417706
3	0xbcb118b8	-0.021618232
4	0xbcdd5e48	-0.027022496
5	0x3f6cd3f0	0.9251089
6	0xbda40816	-0.08009355
7	0xbd374cc7	-0.044750955
8	0x3f66c556	0.9014486
9	0x3f49b7c0	0.78796005
10	0x3ea88677	0.3291509
11	0xba127162	-0.00055863534
12	0xbcda7377	-0.026666386
13	0x00000000	0.0
14	0xbc2170e3	-0.009853574

dense/bias f4 [50]
0	0xbb10bbf7	-0.0022084692
1	0xbb30a090	-0.0026951171
2	0xbb4f3dba	-0.0031622485
3	0xbb4f3db1	-0.0031622464
4	0xbb4f3d84	-0.003162236
5	0xbb4f3d90	-0.0031622387
6	0x00000000	0.0
7	0xbb087a52	-0.0020824862
8	0x00000000	0.0
9	0xbb4b6cba	-0.0031040148
10	0x00000000	0.0
11	0x00000000	0.0
12	0xbb4f3b6e	-0.0031621116
13	0xbaab7291	-0.0013080408
14	0x00000000	0.0
15	0xbb4cad47	-0.003123121
16	0xbb8f7faa	-0.0043792324
17	0x00000000	0.0
18	0x00000000	0.0
19	0xbb6ff030	-0.0036611669
20	0xba2016c8	-0.00061069103
21	0xbb4f3c9f	-0.0031621826
22	0x00000000	0.0
23	0xbb1b5e1a	-0.0023707212
24	0xb9f00d3c	-0.00045786228
25	0x3ba7ea85	0.0051243925
26	0x00000000	0.0
27	0x00000000	0.0
28	0x00000000	0.0
29	0x00000000	0.0
30	0xbb4f3c87	-0.003162177
31	0x00000000	0.0
32	0x00000000	0.0
33	0x00000000	0.0
34	0x00000000	0.0
35	0x00000000	0.0
36	0xba81d182	-0.0009904357
37	0x00000000	0.0
38	0xbb4f3c96	-0.0031621805
39	0xbb93ba18	-0.004508268
40	0xbb4f3d63	-0.0031622283
41	0x00000000	0.0
42	0xbb3edde0	-0.0029123947
43	0x00000000	0.0
44	0xbb4f3db1	-0.0031622464
45	0x00000000	0.0
46	0xbb43fa31	-0.0029903764
47	0x00000000	0.0
48	0x00000000	0.0
49	0x3ac54810	0.0015051384

sequential/dense/MatMul f4 [50, 714]
0	0xbbb3a269	-0.0054820073
1	0xbcb12244	-0.021622784
2	0x3cab12c3	0.02088297
3	0xbda81911	-0.08207906
4	0x3cf116f2	0.029429886
5	0x3d9f1bb1	0.077689536
6	0xbd0d6369	-0.034518633
7	0xbd22e608	-0.039770156
8	0x3c893915	0.016750852
9	0x3d979f86	0.074034736
10	0xbc7b8397	-0.015351198
11	0x3cc7192e	0.024303999
12	0xbda6a4e8	-0.08136922
13	0x3c518723	0.012788567
14	0x3d4a9b4a	0.0494645
15	0xbd689428	-0.056781918
16	0x3d46f66e	0.048574857
17	0xbd9e6a18	-0.077350795
18	0x3da75b04	0.08171657
19	0xbd2429f7	-0.040079083
20	0xbda634ca	-0.081155375
21	0xbda703b3	-0.081550024
22	0xbc565775	-0.013082375
23	0xbd22a0da	-0.03970418
24	0x3d3e9168	0.04652539
25	0xbd54de9e	-0.051970117
26	0xbc26246c	-0.01014052
27	0x3b5c3d4a	0.0033605867
28	0x3d7ff42e	0.062488727
29	0xbd382fb4	-0.04496737
30	0x3c69e1a6	0.01427499
31	0x3d6fe2a5	0.058565754
32	0x37aa7800	2.0321459e-05
33	0xbda68296	-0.08130376
34	0xbdb47dd6	-0.08813064
35	0xbcdfc2a9	-0.0273145
36	0xba3083e0	-0.0006733518
37	0x3c804eb4	0.015662529
38	0xbd5f0aca	-0.05445365
39	0x3d925557	0.071451835
40	0xbd94affe	-0.0726013
41	0xbd810019	-0.06298847
42	0xbd80084a	-0.06251581
43	0x3bdf3a7e	0.0068123927
44	0xbb4e5b30	-0.0031487457
45	0xbd6eb763	-0.05828036
46	0x3d7e3dff	0.062070843
47	0x3cecaf46	0.02889217
48	0xbd2988c2	-0.041390188
49	0xbdacb7b3	-0.08433475
50	0xbd555c0a	-0.05208973
51	0xbbc61b9e	-0.0060457727
52	0x3b618c54	0.0034415917
53	0xbd6bebe2	-0.057598002
54	0xbda6cf85	-0.0814505
55	0xbcdd5a3b	-0.027020564
56	0x3ce42638	0.027850255
57	0xbd5d2888	-0.05399373
58	0xbd8231d8	-0.06357163
59	0x3c1f6ee5	0.009731029
60	0xbcfc6e78	-0.030814394
61	0xbcfbe13e	-0.030747052
62	0xbd9d93a3	-0.07694175
63	0xbc75db03	-0.01500583
64	0x3d9e763c	0.07737395
65	0xbd4c1427	-0.049823906
66	0xbbdd8ace	-0.0067609316
67	0x3d4a2124	0.04934801
68	0x3abddefc	0.001448601
69	0xbd78913d	-0.060685385
70	0xbdb65794	-0.08903423
71	0x3d2ab83c	0.041679606
72	0x3d9f9322	0.07791735
73	0x3d1d0b32	0.038340755
74	0x3da177bd	0.078841664
75	0x3d751fda	0.05984483
76	0xbca69a85	-0.020337353
77	0xbdb07380	-0.0861578
78	0xbd3d7293	-0.046251845
79	0x3dadb4cf	0.08481752
80	0xbd4f5683	-0.050619613
81	0xbd91be7d	-0.07116411
82	0x3c34b120	0.011028558
83	0xbd6b3048	-0.05741909
84	0x3bd17e05	0.0063931965
85	0xbd2b4567	-0.041814234
86	0x3d8a967b	0.06766983
87	0xbd189cc3	-0.037258875
88	0xbda13f59	-0.07873411
89	0xba97b078	-0.0011572978
90	0xbb60a81f	-0.0034279895
91	0xbd84ec84	-0.06490424
92	0x3be3ee1a	0.006955874
93	0x3c72c1a0	0.014816672
94	0xbd80c3ae	-0.06287323
95	0x3d040fb8	0.032241553
96	0xbc36b24c	-0.011150908
97	0x3c9b3199	0.018944548
98	0x3b92ccf2	0.004479998
99	0xbc1545ce	-0.009110881
100	0xbc8ccc99	-0.017187404
101	0xbca98a71	-0.020695897
102	0x3d33e8eb	0.0439233
103	0x3c880a80	0.01660657
104	0xbbae99d0	-0.0053283945
105	0x3d904885	0.07045082
106	0x3d7cad0c	0.061688468
107	0x3ccf8d8c	0.02533605
108	0x3d12362f	0.035696205
109	0xbd3d2188	-0.046174556
110	0x3c278e02	0.010226728
111	0x3d509e9b	0.050932508
112	0xbd7774df	-0.06041419
113	0x3cc89904	0.024487026
114	0x3d811cd1	0.063043244
115	0xbc32394a	-0.010877917
116	0xbda81850	-0.08207762
117	0xbd9c5f8d	-0.07635412
118	0x3d986c8e	0.0744258
119	0x3d9ab7eb	0.07554611
120	0xbda5de72	-0.08099069
121	0x3d8c9527	0.06864386
122	0xbd7e1848	-0.062034875
123	0x3d5994da	0.05312047
124	0xbc8824f0	-0.016619176
125	0x3cf24cb3	0.029577589
126	0xbc2a4890	-0.010393277
127	0xbdb23dfb	-0.08703228
128	0xbd6ff88b	-0.05858664
129	0x3d23abd3	0.039958786
130	0x3dac8b84	0.08425048
131	0x3dac4245	0.084110774
132	0xbcfe9a59	-0.031079458
133	0x3d79ab6d	0.0609545
134	0xbb965a69	-0.0045884144
135	0xbd9af5e7	-0.075664334
136	0xbcc198db	-0.023632457
137	0xbc7c751e	-0.015408782
138	0xbccb76dc	-0.02483695
139	0xbd0ea23c	-0.034822688
140	0x3c3b7dec	0.011443596
141	0x3dab2c5e	0.08358072
142	0xbd9a6ca8	-0.07540256
143	0x3cb99684	0.02265478
144	0xbd1495a0	-0.036275506
145	0xbd7eed74	-0.06223817
146	0xbc6faef2	-0.014629113
147	0xbd6ad00e	-0.057327323
148	0xbc191e3e	-0.009345589
149	0xbc8ec286	-0.01742674
150	0xbcdd9d18	-0.027052447
151	0xbdae2002	-0.08502199
152	0xbdb4d292	-0.088292256
153	0x3dae2533	0.08503189
154	0x3d949838	0.07255596
155	0xbb8508e1	-0.0040598963
156	0x3d95d7f1	0.07316578
157	0xbd145f91	-0.03622395
158	0xbc7b1180	-0.015323997
159	0xbd58076e	-0.05274146
160	0x3d900923	0.07032993
161	0xbd4a90d7	-0.049454536
162	0xbcf6d5ea	-0.030131299
163	0xbd35773c	-0.044303164
164	0x3d2380cd	0.039917756
165	0xbdafd673	-0.08585825
166	0x3d8c06e3	0.06837251
167	0x3a86e6aa	0.0010292132
168	0x3d0de4f5	0.03464218
169	0xbd2ae30e	-0.041720442
170	0x3d9b7775	0.07591144
171	0x3d12487c	0.035713658
172	0x3d2079ed	0.039178777
173	0xbc42c82c	-0.011888545
174	0xba1d449a	-0.0005999297
175	0x3d56f468	0.052479178
176	0x3dac4d41	0.084131725
177	0xbd4acc72	-0.04951138
178	0x3c7c9e26	0.015418565
179	0xbd67fe22	-0.056638844
180	0xbd06eba1	-0.032939557
181	0xbd3addce	-0.045621686
182	0x3c80066a	0.015628058
183	0x3c8afda4	0.016966648
184	0x3cb55c14	0.022138633
185	0x3c453e8d	0.012038839
186	0x3d1b9eac	0.03799312
187	0xbc2e5c12	-0.010642068
188	0x3d371335	0.04469605
189	0xbd74a81b	-0.05973063
190	0xbd9a5047	-0.07534843
191	0x3aa815b8	0.0012823856
192	0xbd9174bd	-0.07102344
193	0x3d7caea7	0.06169
194	0x3d3d7b14	0.046259955
195	0x3d17df8d	0.03707843
196	0x3d95b221	0.07309366
197	0xbcd683eb	-0.02618595
198	0xbd84ec37	-0.06490367
199	0x3d056928	0.032570988
200	0xbd611c52	-0.05495865
201	0xbc813619	-0.015772866
202	0xbdb3affa	-0.08773799
203	0xbd979717	-0.07401865
204	0xbcd5dbd9	-0.026105808
205	0x3cf486a4	0.029849358
206	0x3c39cb01	0.011339904
207	0xbd525127	-0.051346924
208	0xbd40909b	-0.047012907
209	0x3c8e6e77	0.017386658
210	0x3bcfa8ca	0.00633726
211	0x3d939456	0.07206027
212	0x3d44824f	0.047975834
213	0xbcd4ea7a	-0.025990713
214	0xbd5541f0	-0.052064836
215	0xbd0f8d30	-0.035046756
216	0x3da85b7b	0.082205735
217	0x3d212e71	0.03935093
218	0x3cb1df04	0.021712787
219	0x3c43d75e	0.011953203
220	0x3d87faaa	0.06639607
221	0x3d5088c0	0.050911665
222	0x3d8287f3	0.063735865
223	0x3d4cfa0a	0.050043143
224	0x3d08ffd3	0.033447098
225	0xbd8c5f33	-0.06854095
226	0x3da17432	0.078834906
227	0xbd506d0e	-0.050885253
228	0xbaf40610	-0.001861753
229	0xbcd3a6b8	-0.025836334
230	0xbd8d395a	-0.068957046
231	0xbcb786e2	-0.022403184
232	0xbd55ffcd	-0.052245904
233	0xbd1c4e64	-0.038160697
234	0xbd665d61	-0.056241397
235	0x3ab36dd4	0.0013689348
236	0x3d81544d	0.06314907
237	0x3d9307d2	0.07179226
238	0x3d47eedb	0.048811775
239	0x3d0e1d03	0.034695636
240	0x3bde0fe8	0.0067767985
241	0x3dafde75	0.08587352
242	0xbd921a50	-0.07133925
243	0xbd8b0567	-0.0678814
244	0x3b9ae14a	0.0047265636
245	0x3d5f975a	0.0545877
246	0xbc70c3b3	-0.014695096
247	0x3c16d987	0.009207136
248	0x3d3ad4cb	0.04561309
249	0x3da08529	0.07837898
250	0x3cdbfb9e	0.026853379
251	0xbd65aa97	-0.05607089
252	0x3d6d14ef	0.057881292
253	0x3daec6c2	0.08534004
254	0xbb1ebd96	-0.0024221889
255	0x3d1bf5a4	0.038076058

sequential/dense_1/MatMul f4 [15, 50]
0	0x3df8e974	0.12153903
1	0xbe818d4b	-0.2530311
2	0xbdb88b4e	-0.09010945
3	0xbe55fc14	-0.20896941
4	0x3c97e170	0.018540114
5	0xbe062265	-0.13099058
6	0xbc922bf0	-0.017843217
7	0xbdc0f518	-0.09421748
8	0xbe4b2d22	-0.19841436
9	0x3e1e883c	0.15481657
10	0xbdb3cbca	-0.08779104
11	0x3e521de8	0.20519221
12	0x3cc6af70	0.024253577
13	0xbc3e65e0	-0.011620969
14	0xbe948e3d	-0.2901477
15	0xbbbab540	-0.005697876
16	0x3d7339a0	0.059381127
17	0x3d9f23e4	0.077705175
18	0x3dc4bd24	0.09606388
19	0xbe949034	-0.29016268
20	0x3e833cd6	0.25632352
21	0x3e8b0974	0.2715565
22	0x3e402ffe	0.18768308
23	0x3e968906	0.29401416
24	0x3e66afe8	0.2252804
25	0xbde5908e	-0.11209212
26	0xbe0a743b	-0.13520901
27	0x3e575274	0.21027547
28	0x3e54c2cc	0.20777434
29	0xbe8276af	-0.25481173
30	0x3e1eb652	0.15499237
31	0x3cfacd50	0.030615479
32	0xbe980805	-0.29693618
33	0x3e98e3f0	0.29861403
34	0x3e8a280c	0.26983678
35	0x3e8d20ba	0.2756403
36	0xbe30a21f	-0.17249344
37	0x3e0425ee	0.12905094
38	0xbe62a638	-0.2213372
39	0xbdebfb2a	-0.11522515
40	0x3e219c36	0.15782246
41	0x3e2a237e	0.16615102
42	0x3d979238	0.07400936
43	0x3d4d7ff8	0.05017087
44	0x3e907c96	0.28220052
45	0xbe49d2f8	-0.19709384
46	0x3da522b8	0.08063263
47	0x3e6dad28	0.23210585
48	0x3e0b5e28	0.13610137
49	0xbe674c6c	-0.22587746
50	0x3e16f0c0	0.14740276
51	0x3c11045a	0.008851135
52	0x3dce5326	0.10074453
53	0xbe58c3a9	-0.21168388
54	0x3b52e9f8	0.0032182913
55	0x3d67ccfc	0.056591973
56	0xbe8fa4ca	-0.28055412
57	0xbdc16eb1	-0.09444941
58	0xbdbf6ff0	-0.09347522
59	0x3e7807a6	0.24221668
60	0x3c21c460	0.00987348
61	0x3d6bc990	0.05756527
62	0x3e9d0694	0.3066908
63	0xbde51ff3	-0.111877345
64	0x3d13d360	0.036090255
65	0x3e60e401	0.21961977
66	0xbcec4811	-0.028842958
67	0x3e79d010	0.24395776
68	0x3d79bca0	0.060970902
69	0x3e5322f7	0.20618807
70	0x3e32dd3e	0.1746721
71	0xbe4f3652	-0.20235565
72	0xbe0840b8	-0.13305938
73	0x3e1905dc	0.14943641
74	0x3e6b2512	0.2296336
75	0x3f2bb9df	0.6708049
76	0xbe29d424	-0.16584831
77	0xbb7a9000	-0.0038232803
78	0x3e1c6538	0.15272987
79	0x3c790c60	0.015200704
80	0x3d937761	0.07200504
81	0x3cc131f0	0.023583382
82	0xbcf76920	-0.030201495
83	0x3e85feb8	0.26170897
84	0x3c097580	0.008389831
85	0x3d830cb8	0.0639891
86	0x3cb438d4	0.021999754
87	0xbe45cf0b	-0.19317262
88	0xbe3b4a60	-0.1829009
89	0x3e611752	0.21981552
90	0x3e8e9d1b	0.27854237
91	0xbe1fb9cd	-0.15598221
92	0xbe4ab3ac	-0.19795102
93	0x3d6c9190	0.057756007
94	0x3e917630	0.28410482
95	0x3e9695ce	0.29411167
96	0x3dbcfe66	0.0922821
97	0xbd321a88	-0.043482333
98	0x3cb93c80	0.022611856
99	0x3f0a131e	0.5393542
100	0x3e807c9c	0.2509507
101	0x3bcaecc0	0.0061927736
102	0xbe75899e	-0.23978278
103	0xbd82ea20	-0.06392312
104	0x3e357cca	0.17723384
105	0x3dba9500	0.09110451
106	0x3e1cab32	0.15299681
107	0x3e20d9b0	0.15708041
108	0xbe170a09	-0.14749922
109	0xbe3ab6c8	-0.18233788
110	0x3bdecc80	0.0067992806
111	0x3ce6b940	0.028164506
112	0xbdcda776	-0.10041706
113	0xbe172777	-0.14761148
114	0xbe1f7c0c	-0.15574664
115	0x3e0217e6	0.12704429
116	0xbe996f32	-0.29967648
117	0xbe12e22a	-0.14344087
118	0x3e8711a0	0.26380634
119	0xbd5ce9d8	-0.05393395
120	0xbe2d58ea	-0.1692845
121	0xbcf09b00	-0.029370785
122	0x3e1dbbea	0.15403715
123	0x3def4bc8	0.11684376
124	0xbe870054	-0.26367438
125	0xbf24d352	-0.6438495
126	0x3d3dd1c8	0.04634264
127	0xbe5d54d0	-0.21614385
128	0x3e7ed1e4	0.24884754
129	0xbd98d29a	-0.07462044
130	0x3e3cacfc	0.18425363
131	0x3e12eea8	0.14348853
132	0x3df9fb94	0.12206188
133	0x3e540540	0.20705128
134	0x3e856a84	0.26057827
135	0xbe7b3162	-0.24530557
136	0xbe40bb9e	-0.1882157
137	0x3de38b4c	0.11110553
138	0x3e675608	0.22591412
139	0xbe5e0d1e	-0.21684691
140	0x3d86d6ac	0.06583914
141	0x3d73f468	0.059559256
142	0xbcec8600	-0.02887249
143	0xbd108748	-0.035285264
144	0x3e1e76ee	0.15475056
145	0x3dc889d4	0.09791914
146	0x3e836990	0.25666475
147	0x3e8f4482	0.27981955
148	0x3e162f7e	0.14666554
149	0xbda3cd02	-0.079980865
150	0xbc2f1e9e	-0.010688452
151	0xbde98fc5	-0.11404375
152	0xbe0b7d07	-0.13621913
153	0xbbcb73b0	-0.0062088594
154	0x3e93d13e	0.28870577
155	0xbc32c2a4	-0.010910664
156	0xbe559c82	-0.20860484
157	0x3e276e8a	0.16350761
158	0xbe6c3317	-0.23066364
159	0x3e6b88ac	0.23001355
160	0x3db90b8c	0.090354055
161	0xbe442119	-0.19153251
162	0x3e357338	0.17719734
163	0xbd145672	-0.036215253
164	0xbbf71900	-0.007540822
165	0xbd1457dd	-0.036216605
166	0xbde5c908	-0.11219984
167	0xbceff5e0	-0.029292047
168	0xbe2484a7	-0.16066228
169	0x3e0f9d92	0.14024952
170	0xbe7cfa58	-0.24704874
171	0x3d9e17f7	0.07719415
172	0x3dd80bf4	0.10549155
173	0xbe61c34c	-0.22047156
174	0xbe7a8bb0	-0.24467349
175	0x3f5d6ea6	0.8649696
176	0xbe434dcf	-0.1907265
177	0x3e4162de	0.18885371
178	0xbdaaac80	-0.08333683
179	0xbe58e458	-0.21180856
180	0xbc28e1be	-0.010307727
181	0xbe067667	-0.13131104
182	0x3e863b78	0.26217246
183	0xbe608722	-0.21926549
184	0xbda60e2e	-0.08108173
185	0x3de28590	0.11060631
186	0x3d8ad872	0.06779565
187	0xbc1125c0	-0.008859098
188	0x3d947bc3	0.07250168
189	0xbd3af755	-0.04564603
190	0xbe397394	-0.18110496
191	0x3d7db530	0.061940372
192	0x3dfdb4e6	0.12388019
193	0xbe625cd8	-0.2210573
194	0x3db7b0d2	0.08969273
195	0xbce291b0	-0.02765736
196	0xbb6f5b78	-0.0036523025
197	0x3e3e3f6e	0.18578884
198	0xbcbc3c40	-0.022977948
199	0x3f19e6ac	0.601176
200	0x3e8e680a	0.2781375
201	0x3e81e7f1	0.2537227
202	0x3e242558	0.1602987
203	0x3db5b9d2	0.08873333
204	0xbe352546	-0.1769
205	0xbdf713dd	-0.120643355
206	0xbe2fc4c5	-0.17164905
207	0xbcfc6acc	-0.030812643
208	0xbe7e0b12	-0.2480891
209	0xbe6ed7ab	-0.23324458
210	0x3dc33a9c	0.09532663
211	0xbceb9080	-0.028755426
212	0x3e4961d4	0.19666225
213	0xbe091594	-0.13387138
214	0x3cfaa950	0.030598313
215	0x3e173348	0.14765656
216	0xbe8709a2	-0.26374537
217	0xbe8ac214	-0.27101195
218	0xbdb2c95a	-0.08729811
219	0xbe8842fc	-0.26613605
220	0x3dc5af53	0.09652581
221	0x3d38b894	0.045097902
222	0x3e810982	0.25202566
223	0x3e8bd885	0.2731363
224	0x3dbe327e	0.09286974
225	0x3f23de81	0.6401139
226	0xbce11380	-0.027475119
227	0xbdcb9506	-0.09940533
228	0x3e3312d2	0.17487648
229	0x3e31c670	0.17360854
230	0xbe8da879	-0.27667597
231	0xbd40dea0	-0.04708731
232	0xbe610918	-0.21976125
233	0xbe6d762a	-0.23189607
234	0x3e827828	0.25482297
235	0xbe5e8b25	-0.21732767
236	0x3cd648e7	0.02615781
237	0xbe04225c	-0.12903732
238	0xbe28b241	-0.16474248
239	0xbd8835c8	-0.06650883
240	0x3dc06df5	0.09395973
241	0x3e8f1d9e	0.27952284
242	0x3d075675	0.033041436
243	0xbd65248c	-0.055943057
244	0xbbd0a237	-0.0063669938
245	0xbe8d5205	-0.27601638
246	0x3dcd0d38	0.10012287
247	0x3e6fb6a8	0.23409522
248	0xbdc1f0c6	-0.09469752
249	0x3f46e439	0.7769199
250	0x3e0dc27e	0.13843724
251	0x3dad12f0	0.08450878
252	0x3d9b8c24	0.07595089
253	0xbe473c8a	-0.19456688
254	0x3aa11800	0.0012290478
255	0x3d7dec20	0.061992764

sequential/dense_2/MatMul f4 [2, 15]
0	0x3e64e424	0.22352654
1	0xbeb16cbc	-0.3465327
2	0x3f8e15d6	1.1100414
3	0xbf734660	-0.9502926
4	0xbe3811c6	-0.1797553
5	0x3fe1dad4	1.7644906
6	0xbd6cf41e	-0.057849996
7	0xbb2b5803	-0.0026144988
8	0x3fc0570c	1.5026565
9	0x3fbdf58b	1.4840559
10	0x3f1c03c7	0.60943264
11	0xbf82b36d	-1.0211006
12	0xbf828506	-1.0196846
13	0xbec922e6	-0.39284438
14	0x3ef15f8e	0.47143215
15	0x3e3cc68c	0.18435115
16	0x3f7285f1	0.9473563
17	0xbfe4facd	-1.7889038
18	0x3ee91333	0.4552246
19	0x3f8e3213	1.1109031
20	0xbf6905f1	-0.9102469
21	0x3e87d242	0.265276
22	0xbd8827d7	-0.06648224
23	0xbf810607	-1.0079964
24	0xbf93f423	-1.155888
25	0xbe641d55	-0.22276814
26	0x3f03a04c	0.5141647
27	0x3f439e3d	0.7641333
28	0xbeabf362	-0.33584124
29	0x3f096d48	0.53682375
